…
.com/-psfKedecgFI/AAAAAAAAAAI/AAAAAAAAAK8/g5_rC0gfh4s/s50-c-k-no/photo.jpg","userId":"110538182469063326521"}}},"cell_type":"code","source":["model = get_unet_512()\n","print(model.summary())"],"execution_count":46,"outputs":[{"output_type":"stream","text":["__________________________________________________________________________________________________\n","Layer (type)                    Output Shape         Param #     Connected to                     \n","==================================================================================================\n","input_4 (InputLayer)            (None, 512, 512, 3)  0                                            \n","__________________________________________________________________________________________________\n","conv2d_100 (Conv2D)             (None, 512, 512, 16) 448         input_4[0][0]                    \n","__________________________________________________________________________________________________\n","batch_normalization_97 (BatchNo (None, 512, 512, 16) 64          conv2d_100[0][0]                 \n","__________________________________________________________________________________________________\n","activation_97 (Activation)      (None, 512, 512, 16) 0           batch_normalization_97[0][0]     \n","__________________________________________________________________________________________________\n","conv2d_101 (Conv2D)             (None, 512, 512, 16) 2320        activation_97[0][0]              \n","__________________________________________________________________________________________________\n","batch_normalization_98 (BatchNo (None, 512, 512, 16) 64          conv2d_101[0][0]                 \n","__________________________________________________________________________________________________\n","activation_98 (Activation)      (None, 512, 512, 16) 0           batch_normalization_98[0][0]     \n","__________________________________________________________________________________________________\n","max_pooling2d_19 (MaxPooling2D) (None, 256, 256, 16) 0           activation_98[0][0]              \n","__________________________________________________________________________________________________\n","conv2d_102 (Conv2D)             (None, 256, 256, 32) 4640        max_pooling2d_19[0][0]           \n","__________________________________________________________________________________________________\n","batch_normalization_99 (BatchNo (None, 256, 256, 32) 128         conv2d_102[0][0]                 \n","__________________________________________________________________________________________________\n","activation_99 (Activation)      (None, 256, 256, 32) 0           batch_normalization_99[0][0]     \n","__________________________________________________________________________________________________\n","conv2d_103 (Conv2D)             (None, 256, 256, 32) 9248        activation_99[0][0]              \n","__________________________________________________________________________________________________\n","batch_normalization_100 (BatchN (None, 256, 256, 32) 128         conv2d_103[0][0]                 \n","__________________________________________________________________________________________________\n","activation_100 (Activation)     (None, 256, 256, 32) 0           batch_normalization_100[0][0]    \n","__________________________________________________________________________________________________\n","max_pooling2d_20 (MaxPooling2D) (None, 128, 128, 32) 0           activation_100[0][0]             \n","__________________________________________________________________________________________________\n","conv2d_104 (Conv2D)             (None, 128, 128, 64) 18496       max_pooling2d_20[0][0]           \n","__________________________________________________________________________________________________\n","batch_normalization_101 (BatchN (None, 128, 128, 64) 256         conv2d_104[0][0]                 \n","__________________________________________________________________________________________________\n","activation_101 (Activation)     (None, 128, 128, 64) 0           batch_normalization_101[0][0]    \n","__________________________________________________________________________________________________\n","conv2d_105 (Conv2D)             (None, 128, 128, 64) 36928       activation_101[0][0]             \n","__________________________________________________________________________________________________\n","batch_normalization_102 (BatchN (None, 128, 128, 64) 256         conv2d_105[0][0]                 \n","__________________________________________________________________________________________________\n","activation_102 (Activation)     (None, 128, 128, 64) 0           batch_normalization_102[0][0]    \n","__________________________________________________________________________________________________\n","max_pooling2d_21 (MaxPooling2D) (None, 64, 64, 64)   0           activation_102[0][0]             \n","__________________________________________________________________________________________________\n","conv2d_106 (Conv2D)             (None, 64, 64, 128)  73856       max_pooling2d_21[0][0]           \n","__________________________________________________________________________________________________\n","batch_normalization_103 (BatchN (None, 64, 64, 128)  512         conv2d_106[0][0]                 \n","__________________________________________________________________________________________________\n","activation_103 (Activation)     (None, 64, 64, 128)  0           batch_normalization_103[0][0]    \n","__________________________________________________________________________________________________\n","conv2d_107 (Conv2D)             (None, 64, 64, 128)  147584      activation_103[0][0]             \n","__________________________________________________________________________________________________\n","batch_normalization_104 (BatchN (None, 64, 64, 128)  512         conv2d_107[0][0]                 \n","__________________________________________________________________________________________________\n","activation_104 (Activation)     (None, 64, 64, 128)  0           batch_normalization_104[0][0]    \n","__________________________________________________________________________________________________\n","max_pooling2d_22 (MaxPooling2D) (None, 32, 32, 128)  0           activation_104[0][0]             \n","__________________________________________________________________________________________________\n","conv2d_108 (Conv2D)             (None, 32, 32, 256)  295168      max_pooling2d_22[0][0]           \n","__________________________________________________________________________________________________\n","batch_normalization_105 (BatchN (None, 32, 32, 256)  1024        conv2d_108[0][0]                 \n","__________________________________________________________________________________________________\n","activation_105 (Activation)     (None, 32, 32, 256)  0           batch_normalization_105[0][0]    \n","__________________________________________________________________________________________________\n","conv2d_109 (Conv2D)             (None, 32, 32, 256)  590080      activation_105[0][0]             \n","__________________________________________________________________________________________________\n","batch_normalization_106 (BatchN (None, 32, 32, 256)  1024        conv2d_109[0][0]                 \n","__________________________________________________________________________________________________\n","activation_106 (Activation)     (None, 32, 32, 256)  0           batch_normalization_106[0][0]    \n","__________________________________________________________________________________________________\n","max_pooling2d_23 (MaxPooling2D) (None, 16, 16, 256)  0           activation_106[0][0]             \n","__________________________________________________________________________________________________\n","conv2d_110 (Conv2D)             (None, 16, 16, 512)  1180160     max_pooling2d_23[0][0]           \n","__________________________________________________________________________________________________\n","batch_normalization_107 (BatchN (None, 16, 16, 512)  2048        conv2d_110[0][0]                 \n","__________________________________________________________________________________________________\n","activation_107 (Activation)     (None, 16, 16, 512)  0           batch_normalization_107[0][0]    \n","__________________________________________________________________________________________________\n","conv2d_111 (Conv2D)             (None, 16, 16, 512)  2359808     activation_107[0][0]             \n","__________________________________________________________________________________________________\n","batch_normalization_108 (BatchN (None, 16, 16, 512)  2048        conv2d_111[0][0]                 \n","__________________________________________________________________________________________________\n","activation_108 (Activation)     (None, 16, 16, 512)  0           batch_normalization_108[0][0]    \n","__________________________________________________________________________________________________\n","max_pooling2d_24 (MaxPooling2D) (None, 8, 8, 512)    0           activation_108[0][0]             \n","__________________________________________________________________________________________________\n","conv2d_112 (Conv2D)             (None, 8, 8, 1024)   4719616     max_pooling2d_24[0][0]           \n","__________________________________________________________________________________________________\n","batch_normalization_109 (BatchN (None, 8, 8, 1024)   4096        conv2d_112[0][0]                 \n","__________________________________________________________________________________________________\n","activation_109 (Activation)     (None, 8, 8, 1024)   0           batch_normalization_109[0][0]    \n","__________________________________________________________________________________________________\n","conv2d_113 (Conv2D)             (None, 8, 8, 1024)   9438208     activation_109[0][0]             \n","__________________________________________________________________________________________________\n","batch_normalization_110 (BatchN (None, 8, 8, 1024)   4096        conv2d_113[0][0]                 \n","__________________________________________________________________________________________________\n","activation_110 (Activation)     (None, 8, 8, 1024)   0           batch_normalization_110[0][0]    \n","__________________________________________________________________________________________________\n","up_sampling2d_19 (UpSampling2D) (None, 16, 16, 1024) 0           activation_110[0][0]             \n","__________________________________________________________________________________________________\n","concatenate_19 (Concatenate)    (None, 16, 16, 1536) 0           activation_108[0][0]             \n","                                                                 up_sampling2d_19[0][0]           \n","__________________________________________________________________________________________________\n","conv2d_114 (Conv2D)             (None, 16, 16, 512)  7078400     concatenate_19[0][0]             \n","__________________________________________________________________________________________________\n","batch_normalization_111 (BatchN (None, 16, 16, 512)  2048        conv2d_114[0][0]                 \n","__________________________________________________________________________________________________\n","activation_111 (Activation)     (None, 16, 16, 512)  0           batch_normalization_111[0][0]    \n","__________________________________________________________________________________________________\n","conv2d_115 (Conv2D)             (None, 16, 16, 512)  2359808     activation_111[0][0]             \n","__________________________________________________________________________________________________\n","batch_normalization_112 (BatchN (None, 16, 16, 512)  2048        conv2d_115[0][0]                 \n","__________________________________________________________________________________________________\n","activation_112 (Activation)     (None, 16, 16, 512)  0           batch_normalization_112[0][0]    \n","__________________________________________________________________________________________________\n","conv2d_116 (Conv2D)             (None, 16, 16, 512)  2359808     activation_112[0][0]             \n","__________________________________________________________________________________________________\n","batch_normalization_113 (BatchN (None, 16, 16, 512)  2048        conv2d_116[0][0]                 \n","__________________________________________________________________________________________________\n","activation_113 (Activation)     (None, 16, 16, 512)  0           batch_normalization_113[0][0]    \n","__________________________________________________________________________________________________\n","up_sampling2d_20 (UpSampling2D) (None, 32, 32, 512)  0           activation_113[0][0]             \n","__________________________________________________________________________________________________\n","concatenate_20 (Concatenate)    (None, 32, 32, 768)  0           activation_106[0][0]             \n","                                                                 up_sampling2d_20[0][0]           \n","__________________________________________________________________________________________________\n","conv2d_117 (Conv2D)             (None, 32, 32, 256)  1769728     concatenate_20[0][0]             \n","__________________________________________________________________________________________________\n","batch_normalization_114 (BatchN (None, 32, 32, 256)  1024        conv2d_117[0][0]                 \n","__________________________________________________________________________________________________\n","activation_114 (Activation)     (None, 32, 32, 256)  0           batch_normalization_114[0][0]    \n","__________________________________________________________________________________________________\n","conv2d_118 (Conv2D)             (None, 32, 32, 256)  590080      activation_114[0][0]             \n","__________________________________________________________________________________________________\n","batch_normalization_115 (BatchN (None, 32, 32, 256)  1024        conv2d_118[0][0]                 \n","__________________________________________________________________________________________________\n","activation_115 (Activation)     (None, 32, 32, 256)  0           batch_normalization_115[0][0]    \n","__________________________________________________________________________________________________\n","conv2d_119 (Conv2D)             (None, 32, 32, 256)  590080      activation_115[0][0]             \n","__________________________________________________________________________________________________\n","batch_normalization_116 (BatchN (None, 32, 32, 256)  1024        conv2d_119[0][0]                 \n","__________________________________________________________________________________________________\n","activation_116 (Activation)     (None, 32, 32, 256)  0           batch_normalization_116[0][0]    \n","__________________________________________________________________________________________________\n","up_sampling2d_21 (UpSampling2D) (None, 64, 64, 256)  0           activation_116[0][0]             \n","__________________________________________________________________________________________________\n","concatenate_21 (Concatenate)    (None, 64, 64, 384)  0           activation_104[0][0]             \n","                                                                 up_sampling2d_21[0][0]           \n","__________________________________________________________________________________________________\n","conv2d_120 (Conv2D)             (None, 64, 64, 128)  442496      concatenate_21[0][0]             \n","__________________________________________________________________________________________________\n","batch_normalization_117 (BatchN (None, 64, 64, 128)  512         conv2d_120[0][0]                 \n","__________________________________________________________________________________________________\n","activation_117 (Activation)     (None, 64, 64, 128)  0           batch_normalization_117[0][0]    \n","__________________________________________________________________________________________________\n","conv2d_121 (Conv2D)             (None, 64, 64, 128)  147584      activation_117[0][0]             \n","__________________________________________________________________________________________________\n","batch_normalization_118 (BatchN (None, 64, 64, 128)  512         conv2d_121[0][0]                 \n","__________________________________________________________________________________________________\n","activation_118 (Activation)     (None, 64, 64, 128)  0           batch_normalization_118[0][0]    \n","__________________________________________________________________________________________________\n","conv2d_122 (Conv2D)             (None, 64, 64, 128)  147584      activation_118[0][0]             \n","__________________________________________________________________________________________________\n","batch_normalization_119 (BatchN (None, 64, 64, 128)  512         conv2d_122[0][0]                 \n","__________________________________________________________________________________________________\n","activation_119 (Activation)     (None, 64, 64, 128)  0           batch_normalization_119[0][0]    \n","__________________________________________________________________________________________________\n","up_sampling2d_22 (UpSampling2D) (None, 128, 128, 128 0           activation_119[0][0]             \n","__________________________________________________________________________________________________\n","concatenate_22 (Concatenate)    (None, 128, 128, 192 0           activation_102[0][0]             \n","                                                                 up_sampling2d_22[0][0]           \n","__________________________________________________________________________________________________\n","conv2d_123 (Conv2D)             (None, 128, 128, 64) 110656      concatenate_22[0][0]             \n","__________________________________________________________________________________________________\n","batch_normalization_120 (BatchN (None, 128, 128, 64) 256         conv2d_123[0][0]                 \n","__________________________________________________________________________________________________\n","activation_120 (Activation)     (None, 128, 128, 64) 0           batch_normalization_120[0][0]    \n","__________________________________________________________________________________________________\n","conv2d_124 (Conv2D)             (None, 128, 128, 64) 36928       activation_120[0][0]             \n","__________________________________________________________________________________________________\n","batch_normalization_121 (BatchN (None, 128, 128, 64) 256         conv2d_124[0][0]                 \n","__________________________________________________________________________________________________\n","activation_121 (Activation)     (None, 128, 128, 64) 0           batch_normalization_121[0][0]    \n","__________________________________________________________________________________________________\n","conv2d_125 (Conv2D)             (None, 128, 128, 64) 36928       activation_121[0][0]             \n","__________________________________________________________________________________________________\n","batch_normalization_122 (BatchN (None, 128, 128, 64) 256         conv2d_125[0][0]                 \n","__________________________________________________________________________________________________\n","activation_122 (Activation)     (None, 128, 128, 64) 0           batch_normalization_122[0][0]    \n","__________________________________________________________________________________________________\n","up_sampling2d_23 (UpSampling2D) (None, 256, 256, 64) 0           activation_122[0][0]             \n","__________________________________________________________________________________________________\n","concatenate_23 (Concatenate)    (None, 256, 256, 96) 0           activation_100[0][0]             \n","                                                                 up_sampling2d_23[0][0]           \n","__________________________________________________________________________________________________\n","conv2d_126 (Conv2D)             (None, 256, 256, 32) 27680       concatenate_23[0][0]             \n","__________________________________________________________________________________________________\n","batch_normalization_123 (BatchN (None, 256, 256, 32) 128         conv2d_126[0][0]                 \n","__________________________________________________________________________________________________\n","activation_123 (Activation)     (None, 256, 256, 32) 0           batch_normalization_123[0][0]    \n","__________________________________________________________________________________________________\n","conv2d_127 (Conv2D)             (None, 256, 256, 32) 9248        activation_123[0][0]             \n","__________________________________________________________________________________________________\n","batch_normalization_124 (BatchN (None, 256, 256, 32) 128         conv2d_127[0][0]                 \n","__________________________________________________________________________________________________\n","activation_124 (Activation)     (None, 256, 256, 32) 0           batch_normalization_124[0][0]    \n","__________________________________________________________________________________________________\n","conv2d_128 (Conv2D)             (None, 256, 256, 32) 9248        activation_124[0][0]             \n","__________________________________________________________________________________________________\n","batch_normalization_125 (BatchN (None, 256, 256, 32) 128         conv2d_128[0][0]                 \n","__________________________________________________________________________________________________\n","activation_125 (Activation)     (None, 256, 256, 32) 0           batch_normalization_125[0][0]    \n","__________________________________________________________________________________________________\n","up_sampling2d_24 (UpSampling2D) (None, 512, 512, 32) 0           activation_125[0][0]             \n","__________________________________________________________________________________________________\n","concatenate_24 (Concatenate)    (None, 512, 512, 48) 0           activation_98[0][0]              \n","                                                                 up_sampling2d_24[0][0]           \n","__________________________________________________________________________________________________\n","conv2d_129 (Conv2D)             (None, 512, 512, 16) 6928        concatenate_24[0][0]             \n","__________________________________________________________________________________________________\n","batch_normalization_126 (BatchN (None, 512, 512, 16) 64          conv2d_129[0][0]                 \n","__________________________________________________________________________________________________\n","activation_126 (Activation)     (None, 512, 512, 16) 0           batch_normalization_126[0][0]    \n","__________________________________________________________________________________________________\n","conv2d_130 (Conv2D)             (None, 512, 512, 16) 2320        activation_126[0][0]             \n","__________________________________________________________________________________________________\n","batch_normalization_127 (BatchN (None, 512, 512, 16) 64          conv2d_130[0][0]                 \n","__________________________________________________________________________________________________\n","activation_127 (Activation)     (None, 512, 512, 16) 0           batch_normalization_127[0][0]    \n","__________________________________________________________________________________________________\n","conv2d_131 (Conv2D)             (None, 512, 512, 16) 2320        activation_127[0][0]             \n","__________________________________________________________________________________________________\n","batch_normalization_128 (BatchN (None, 512, 512, 16) 64          conv2d_131[0][0]                 \n","__________________________________________________________________________________________________\n","activation_128 (Activation)     (None, 512, 512, 16) 0           batch_normalization_128[0][0]    \n","__________________________________________________________________________________________________\n","conv2d_132 (Conv2D)             (None, 512, 512, 1)  17          activation_128[0][0]             \n","==================================================================================================\n","Total params: 34,632,753\n","Trainable params: 34,618,577\n","Non-trainable params: 14,176\n","__________________________________________________________________________________________________\n","None\n"],"name":"stdout"}]},{"metadata":{"id":"-kv9
…
